dqn_lunarlander.pt (torch, 76085 bytes, 6 tensors)

net.0.weight f4 [128, 8]
0.33053365 -1.3283991 0.2233832 2.774651 -0.16923884 -1.3873832 0.7018379 -1.1403188
1.8038807 -0.22780555 0.7548711 -0.28641304 -0.36008018 0.06254271 1.0487515 -0.16320924
2.0482955 -0.47750726 -0.057880275 0.25704 0.47176465 -0.03154068 -1.8871078 -1.0376894
-0.30887142 -0.110489175 -0.29362488 -1.4361092 0.4355051 -0.3694203 0.7730653 -0.952169
0.48101738 -0.7621644 0.24742113 2.4517958 -0.26540682 -0.30401954 1.3777813 0.86431575
-0.0070215343 -0.9240192 2.3671086 -1.2221234 -0.1711723 -0.056352932 -0.31548113 -0.0005355712
0.9062573 0.1806365 -1.7551042 -0.90074927 0.21132489 0.030442538 -0.23546724 0.6912851
-0.77692646 0.10224657 0.8569203 -0.62379646 0.7184365 -0.14579585 0.62299573 -1.647947
0.69310874 -0.3344189 0.7781059 -0.5337246 0.7737825 -1.1118963 0.79998815 0.7843152
-0.011886807 -0.19354546 -0.13356271 0.76238865 -3.2122517 0.20434068 0.60303414 -0.011786362
-0.34619436 -0.89322454 0.20275095 -0.8062358 -1.2144841 0.5406634 0.16920331 -1.3975956
-0.49635565 0.32949173 -0.0813708 0.104829505 0.8462375 1.6073787 -1.6658736 -1.3309203
0.60363543 -0.08690363 -0.58212495 -0.918011 -1.6027577 -0.07316676 -0.06425638 -1.172748
-0.035269108 -0.91959274 -2.455353 -1.2090491 1.1809037 0.37795568 0.13647313 -0.39584437
-0.6694921 -1.7846582 -1.3483869 -0.4784397 1.0423479 -1.5892916 0.26981142 0.3149448
-0.1257415 0.03104772 -0.7225867 -0.973117 0.1747661 -0.13540173 -0.9996893 -0.19966988
0.44721675 0.27627042 0.77068233 0.25268105 -2.0627246 -0.39100042 -0.9762764 0.12811227
-0.17322087 -0.21596247 0.3865714 -0.04644944 1.8457668 -0.7390428 -0.17383939 -1.0553085
-0.005995039 -2.0323467 3.032649 2.1681302 0.28957817 -0.11591226 -0.6431411 0.7081666
0.35661998 -0.019036002 0.7155311 -0.6704224 0.89814365 0.6144719 -0.5381748 -2.2018003
1.128186 0.2549615 0.6690596 -0.7916142 0.9757725 0.08114648 -1.9935919 0.37029204
0.069569476 -0.25460315 -0.08102781 0.100330144 0.1706289 -0.104125716 -0.20172869 -0.12107184
-1.7495865 0.3852298 0.36831072 -0.15560971 -0.817866 0.88510346 -1.0853385 -2.4590826
0.7335489 0.13849348 -0.49507242 -0.081413716 -0.67773736 -0.285769 0.832616 -2.4204025
1.649072 -0.041468754 -1.0173694 0.6203564 0.81875837 0.33314422 1.1653563 -0.30986196
-0.20038398 -0.7776696 -0.32268384 -0.36998236 1.2302337 -0.30334362 -0.43543303 0.28695086
0.26544973 0.24221425 0.09325159 0.47743803 -1.1128912 -1.1136088 -1.3377811 1.232724
1.2625995 -0.12211315 0.052130446 -0.31350872 -1.0972111 -0.6772487 -1.4300474 -0.8188907
0.17481817 0.3472981 -0.8137884 0.020442262 0.62144804 -1.4031767 -2.012277 0.709985
0.25895262 0.53285515 -0.0077841706 1.7224865 -0.16050169 -1.6211704 -1.943209 -0.39464366
-0.37897643 -0.12956364 -0.121584184 -0.5862548 0.2581022 -0.4949421 -0.8299509 0.32624876
-0.45677224 0.6418813 -0.5998307 -0.6096775 0.5623172 -0.27244925 -0.07484433 -1.196403
00000000: b53b a93e fb08 aabf 91be 643e e293 3140
00000010: f24c 2dbe c695 b1bf a6ab 333f f7f5 91bf
00000020: 90e5 e63f dc45 69be 3b3f 413f bba4 92be
00000030: 6e5c b8be 6416 803d 7d3d 863f 5320 27be
00000040: 4617 0340 d57b f4be de13 6dbd bf9a 833e
00000050: 238b f13e cd30 01bd c08c f1bf 02d3 84bf
00000060: 6524 9ebe 2648 e2bd 0056 96be 6dd2 b7bf
00000070: 86fa de3e a824 bdbe 9ce7 453f 59c1 73bf
00000080: e947 f63e 351d 43bf f75b 7d3e 39ea 1c40
00000090: 67e3 87be 73a8 9bbe 235b b03f cc43 5d3f
000000a0: e614 e6bb 868c 6cbf b57e 1740 8a6e 9cbf
000000b0: cb47 2fbe 55d2 66bd be86 a1be 9365 0cba
000000c0: 7a00 683f c6f8 383e 41a7 e0bf 8197 66bf
000000d0: 8d65 583e a162 f93c 531e 71be 0ff8 303f
000000e0: a7e4 46bf a666 d13d 215f 5b3f 20b1 1fbf
000000f0: 74eb 373f 824b 15be a67c 1f3f edef d2bf
00000100: 936f 313f f438 abbe f331 473f 2da2 08bf
00000110: 9c16 463f 9e52 8ebf 06cc 4c3f e2c8 483f
00000120: e2c0 42bc c830 46be aac4 08be e72b 433f
00000130: 8895 4dc0 af3e 513e 7260 1a3f 961b 41bc
00000140: 6340 b1be 5daa 64bf f29d 4f3e 7865 4ebf
00000150: 3774 9bbf eb68 0a3f a243 2d3e 6ae4 b2bf
00000160: 5422 febe 24b3 a83e bca5 a6bd dab0 d63d
00000170: 05a3 583f 96be cd3f 593b d5bf 995b aabf
00000180: da87 1a3f 88fa b1bd 2406 15bf c502 6bbf
00000190: 2a27 cdbf 74d8 95bd d998 83bd 9b1c 96bf
000001a0: 5776 10bd 6e6a 6bbf 8124 1dc0 1fc2 9abf
000001b0: da27 973f 6883 c13e 9dbf 0b3e 1dac cabe
000001c0: d663 2bbf ae6f e4bf f197 acbf 0cf6 f4be
000001d0: a86b 853f e86d cbbf b924 8a3e 7240 a13e
000001e0: 61c2 00be ca57 fe3c 71fb 38bf 321e 79bf
000001f0: e2f5 323e c0a6 0abe a3eb 7fbf 4376 4cbe
00000200: 98f9 e43e 5173 8d3e 704b 453f 695f 813e
00000210: ae03 04c0 3531 c8be 40ed 79bf dd2f 033e
00000220: d060 31be 4425 5dbe b0ec c53e c541 3ebd
00000230: 1642 ec3f e931 3dbf f402 32be 5914 87bf
00000240: 0872 c4bb f811 02c0 ec16 4240 a5c2 0a40
00000250: 9743 943e 6863 edbd e5a4 24bf 684a 353f
00000260: e596 b63e 64f1 9bbc 0c2d 373f cda0 2bbf
00000270: beec 653f 084e 1d3f d3c5 09bf 4cea 0cc0
00000280: 6668 903f 508a 823e 7d47 2b3f 3aa7 4abf
00000290: 3acc 793f 2030 a63d 052e ffbf eb96 bd3e
000002a0: 717a 8e3d 585b 82be e9f1 a5bd e479 cd3d
000002b0: 58b9 2e3e dd3f d5bd f791 4ebe 83f4 f7bd
000002c0: 73f2 dfbf d73c c53e 3993 bc3e 2758 1fbe
000002d0: ab5f 51bf 2496 623f 5fec 8abf 9c61 1dc0
000002e0: dcc9 3b3f 3cd1 0d3e 227a fdbe 3cbc a6bd
000002f0: 3280 2dbf 5050 92be 5226 553f e0e7 1ac0
00000300: cb14 d33f 24db 29bd 2939 82bf adcf 1e3f
00000310: 269a 513f e191 aa3e 652a 953f 3aa6 9ebe
00000320: 7531 4dbe 5b15 47bf d136 a5be 546e bdbe
00000330: 4c78 9d3f db4f 9bbe 14f1 debe 39eb 923e
00000340: 07e9 873e 0307 783e b1fa be3d c272 f43e
00000350: 3873 8ebf bc8a 8ebf 693c abbf e6c9 9d3f
00000360: dc9c a13f 7616 fabd bc86 553d 3784 a0be
00000370: 6a71 8cbf 2c60 2dbf cb0b b7bf d2a2 51bf
00000380: 8903 333e 0ed1 b13e 7054 50bf 8876 a73c
00000390: 3817 1f3f 4b9b b3bf 25c9 00c0 94c1 353f
000003a0: 7095 843e 3269 083f 5b12 ffbb 707a dc3f
000003b0: 8e5a 24be 8382 cfbf 13bb f8bf bc0e cabe
000003c0: 3309 c2be 55ac 04be 2101 f9bd cb14 16bf
000003d0: f925 843e 0d69 fdbe aa77 54bf 140a a73e
000003e0: 0dde e9be 5552 243f 818e 19bf d313 1cbf
000003f0: 05f4 0f3f 787e 8bbe fc47 99bd bc23 99bf

net.0.bias f4 [128]
0.394768 0.08240449 0.6944716 0.05970414 -0.070920646 0.3147356 0.19273555 -0.17255804
-0.35154077 -0.60398155 0.47989663 0.62719476 0.52610826 -0.15138 -0.2476007 0.13404654
0.11081492 0.61161083 -0.066404976 0.47455567 -0.3750783 -0.28628266 -0.31994504 0.04417967
0.04081269 0.75665 0.49357855 0.1482477 -1.0101143 -0.3525373 0.55122095 -0.053917818
0.18299043 -0.19060162 -0.61410695 -0.49796832 -0.5154695 0.2910176 0.62427 0.5697025
-0.7304345 0.19491604 -0.50330454 0.33314756 0.20258549 0.45441753 -0.0061096433 0.011383999
0.0007043178 -0.5129284 -0.21471304 -0.19340521 -0.33586344 0.065648474 -0.45446286 -0.0068344367
0.06080029 -0.04618303 -0.48918644 -0.21598248 0.31990126 0.11767066 0.49223313 0.33086985
0.04937441 -0.7379269 0.17694531 0.041921817 -0.34322962 -0.5128562 0.1329565 0.22509433
-0.3173899 0.040355973 0.20370232 0.22033499 -0.0031907738 1.1386445 0.4556298 0.22519474
0.5185301 0.28567335 -0.05606121 -0.20386314 -0.4089025 0.5376451 -1.2938625 -0.505624
-0.23241515 0.20075935 -0.40537626 -0.29983342 -0.40730748 0.2596611 0.10430155 0.5600832
-0.40039635 -0.81193614 0.58039814 -0.3064771 0.54929924 -1.1040919 0.13967961 0.44047984
0.04255136 0.5997109 -0.7601222 0.594742 -0.91825134 -0.72481436 0.44145983 -0.27523437
0.09838138 0.35037714 -0.10748062 -0.10390652 0.07277722 -0.7582931 -0.14336057 -0.856842
-0.598776 0.4095505 0.3005357 -0.20110549 0.25347108 -0.16488732 -0.4349511 0.60927236
00000000: 081f ca3e afc3 a83d e4c8 313f 548c 743d
00000010: d83e 91bd 0625 a13e 785c 453e 0eb3 30be
00000020: 27fd b3be 899e 1abf 03b5 f53e d68f 203f
00000030: 08af 063f 5c03 1bbe 0a8b 7dbe 7f43 093e
00000040: eff2 e23d 8792 1c3f 55ff 87bd f6f8 f23e
00000050: 430a c0be a493 92be d6cf a3be bef5 343d
00000060: 352b 273d d0b3 413f 54b6 fc3e 3fce 173e
00000070: 6d4b 81bf c57f b4be d11c 0d3f eed8 5cbd
00000080: d861 3b3e 122d 43be 1d36 1dbf b4f5 febe
00000090: cff5 03bf 4200 953e 29d0 1f3f 06d8 113f
000000a0: c1fd 3abf 1298 473e 91d8 00bf 5192 aa3e
000000b0: 9272 4f3e 6aa9 e83e 6733 c8bb f483 3a3c
000000c0: f8a1 383a 474f 03bf bcdd 5bbe 040c 46be
000000d0: 4bf6 abbe b572 863d 5baf e8be 69f3 dfbb
000000e0: ba09 793d 6b2a 3dbd a576 fabe 832a 5dbe
000000f0: 19ca a33e 51fd f03d fb05 fc3e c667 a93e
00000100: d23c 4a3d c7e8 3cbf 2731 353e 36b6 2b3d
00000110: cbbb afbe 8b4a 03bf c025 083e 217f 663e
00000120: ee80 a2be 4e4c 253d 5797 503e 7f9f 613e
00000130: 4d1c 51bb 1abf 913f 4f48 e93e 7399 663e
00000140: 63be 043f c743 923e 70a0 65bd 80c1 50be
00000150: ab5b d1be 1ca3 093f 499d a5bf 9370 01bf
00000160: 3dfe 6dbe dc93 4d3e 7a8d cfbe c483 99be
00000170: 9b8a d0be 4df2 843e 0d9c d53d 9d61 0f3f
00000180: c000 cdbe 0cdb 4fbf f994 143f 91ea 9cbe
00000190: e09e 0c3f e252 8dbf 2c08 0f3e 9386 e13e
000001a0: 564a 2e3d a786 193f 5e97 42bf 0341 183f
000001b0: 8512 6bbf 6f8d 39bf 0607 e23e 85eb 8cbe
000001c0: 2d7c c93d a264 b33e cd1e dcbd f1cc d4bd
000001d0: 390c 953d 7f1f 42bf 1dcd 12be ff59 5bbf
000001e0: 6249 19bf 9ab0 d13e d1df 993e 99ee 4dbe
000001f0: f6c6 813e 39d8 28be e9b1 debe 46f9 1b3f

net.2.weight f4 [128, 128]
0.108697206 -0.5793577 0.06996271 0.15418364 -0.949406 -0.9948561 0.15841514 0.75739723
-0.00076562224 -0.42272797 0.77200246 0.22395925 0.03376822 0.7564005 1.122469 0.036133084
-0.68519783 0.4942908 -2.2984796 0.46824798 0.8111941 0.030917343 -0.31487295 -0.23826776
-0.07919963 -0.9018433 -0.3270614 -0.35240817 0.5830619 -1.4359646 0.1150947 -0.09773989
-0.67914766 0.43410537 0.27583048 -1.58741 -0.09661427 0.1060696 0.3999584 0.7145204
-0.3645152 0.36157072 -0.08456885 -0.047628768 0.10894239 -0.63253975 2.006225 -0.044667494
-0.14317977 -0.68264073 1.3839047 0.6244777 -0.12594582 -0.22935532 0.2876507 -1.4355428
0.1980515 0.1977475 -2.556127 0.38560754 0.18586402 -0.18219598 0.11896496 0.095230326
0.5979649 -1.0396798 0.23689377 1.8589841 1.1629641 -0.18756379 -0.025280371 0.10665277
-0.21702865 -0.22519407 0.66920793 0.072999075 0.32454887 0.34085205 -0.32613164 -0.030314744
-0.046377353 0.6168005 -0.49370456 0.5702901 -0.09438636 0.11495705 0.8163456 0.15722151
-0.058525402 -1.2205052 0.45339757 -1.0608535 -0.6837404 0.12641805 0.0517408 0.30550265
-1.5741282 -0.42695686 -2.2627022 -0.74678296 0.04305215 0.06498913 0.2641371 1.0260587
-0.3284863 -1.0184634 -0.29356095 -0.22432944 -0.17168173 -0.20564754 -0.11460224 0.3870289
-0.18046774 0.089557976 0.49654898 -2.5157647 -0.042564563 0.30820185 -0.30301526 -0.29948354
-0.58163846 -0.8602625 -0.14755258 -0.27062777 0.10006895 0.08603253 -0.14171106 -0.118563876
-2.2010314 0.54969466 -1.6891658 -0.06060572 -2.0721283 0.47063154 -0.46260682 -0.880647
0.040639207 -0.18102522 0.49508697 -0.5085819 -0.20879297 1.1270615 0.829135 -0.015540484
0.67507195 -0.050378703 -1.9844421 0.3334968 1.0371708 0.052946523 0.05785913 -0.95451367
-0.119696945 -0.80684906 0.9151479 0.4374648 1.2354811 0.4865041 0.046663202 -0.41502735
0.4618368 -0.32009086 -0.1857005 0.23374313 0.8260358 -0.57803863 -1.8066581 -0.5902604
0.07356635 0.11430762 -1.0212197 0.13806286 -0.8669188 0.088222414 0.22441237 0.20805563
-1.3613726 -1.3671665 -0.0012343867 -0.3132574 -0.22949019 -0.8185809 -1.2267302 1.4009122
0.49697152 -0.62277156 1.0613608 -0.26991552 0.13032885 0.1729302 -0.14554466 -1.2372949
0.7679408 -0.7824558 0.03483719 -3.6220298 -0.29329348 0.53416854 0.5499608 -0.032615345
-0.23617777 0.4749572 -0.56535864 -0.21510084 -0.019975161 -2.130744 -1.1213557 -0.039024148
-1.0484188 0.53746706 -2.2854156 1.2386404 2.1768951 -0.58967733 -0.8292702 0.049249697
1.6771849 0.08771281 -2.9942615 1.4158309 0.37470904 0.46696734 0.5802381 0.031416483
0.81925535 -0.8786401 0.111560024 0.71926016 -0.045026813 1.9965643 -0.97333086 -1.2170126
0.67252094 0.8153468 -0.045600735 -0.25663188 -0.028674005 2.2310987 0.39376044 -0.17415148
0.24947405 -0.13781817 0.17495301 1.5249714 -0.32165855 0.3473523 1.0808829 0.28299925
1.8627031 -0.65623975 -1.3268142 0.05107668 0.48066202 -0.07004256 0.7471553 -0.33742085
00000000: a49c de3d c950 14bf 9c48 8f3d 51e2 1d3e
00000010: 460c 73bf e4ae 7ebf 9437 223e c9e4 413f
00000020: 0ab4 48ba cd6f d8be f4a1 453f 9355 653e
00000030: 8c50 0a3d 77a3 413f 10ad 8f3f 4900 143d
00000040: 2069 2fbf af13 fd3e 4a1a 13c0 33be ef3e
00000050: 6baa 4f3f 5e46 fd3c 0737 a1be 77fc 73be
00000060: 6a33 a2bd 34df 66bf 9874 a7be d86e b4be
00000070: 8b43 153f b0cd b7bf c5b6 eb3d da2b c8bd
00000080: 9fdc 2dbf 0f43 de3e a739 8d3e 4030 cbbf
00000090: b4dd c5bd 053b d93d 59c7 cc3e cfea 363f
000000a0: bca1 babe cc1f b93e 6f32 adbd 6216 43bd
000000b0: 301d df3d 20ee 21bf fe65 0040 43f5 36bd
000000c0: b89d 12be 8bc1 2ebf ca23 b13f c5dd 1f3f
000000d0: f1f7 00be 1fdc 6abe f446 933e debf b7bf
000000e0: 03ce 4a3e 527e 4a3e 9697 23c0 5a6e c53e
000000f0: 2353 3e3e 9591 3abe e7a3 f33d 1e08 c33d
00000100: 3a14 193f 3a14 85bf 4894 723e 31f3 ed3f
00000110: 02dc 943f b910 40be c818 cfbc c46c da3d
00000120: c23c 5ebe 4699 66be 3651 2b3f 8a80 953d
00000130: 452b a63e 2984 ae3e bafa a6be a056 f8bc
00000140: 2ef6 3dbd a3e6 1d3f d8c6 fcbe 88fe 113f
00000150: a34d c1bd 9a6e eb3d 06fc 503f adfe 203e
00000160: 55b8 6fbd 8439 9cbf ba23 e83e 0cca 87bf
00000170: 9c09 2fbf bc73 013e 29ee 533d d86a 9c3e
00000180: 087d c9bf 179a dabe 1dd0 10c0 2b2d 3fbf
00000190: 7457 303d 0519 853d fa3c 873e e455 833f
000001a0: 5b2f a8be 025d 82bf 9f4d 96be 9eb6 65be
000001b0: 56cd 2fbe 4595 52be 94b4 eabd a728 c63e
000001c0: 89cc 38be 2c6a b73d ab3b fe3e 4a02 21c0
000001d0: 2e58 2ebd a2cc 9d3e d124 9bbe e855 99be
000001e0: 42e6 14bf 2a3a 5cbf 0618 17be b98f 8abe
000001f0: f3f0 cc3d d331 b03d b41c 11be 9ed1 f2bd
00000200: b3dd 0cc0 cab8 0c3f 9636 d8bf b43d 78bd
00000210: c09d 04c0 9ef6 f03e cdda ecbe 1572 61bf
00000220: 4c75 263d ad5e 39be 0a7c fd3e 6c32 02bf
00000230: d3cd 55be 8d43 903f 3142 543f 849d 7ebc
00000240: 84d1 2c3f e659 4ebd 3302 febf 18c0 aa3e
00000250: 03c2 843f 74de 583d b2fd 6c3d 025b 74bf
00000260: ac23 f5bd a98d 4ebf 2247 6a3f 63fb df3e
00000270: 3f24 9e3f 1117 f93e ea21 3f3d 777e d4be
00000280: e075 ec3e f3e2 a3be 4628 3ebe 5c5a 6f3e
00000290: 1577 533f 57fa 13bf 9340 e7bf 4e1b 17bf
000002a0: f4a9 963d 1d1a ea3d 54b7 82bf 5a60 0d3e
000002b0: 64ee 5dbf f4ad b43d 5bcc 653e 890c 553e
000002c0: 7541 aebf 50ff aebf 25cb a1ba 4663 a0be
000002d0: 7aff 6abe 858e 51bf 7f05 9dbf 1751 b33f
000002e0: 0d73 fe3e f56d 1fbf acda 873f 5e32 8abe
000002f0: ed74 053e 9d14 313e a909 15be ae5f 9ebf
00000300: c597 443f 064f 48bf 71b1 0e3d 56cf 67c0
00000310: 902a 96be 45bf 083f 3bca 0c3f ab97 05bd
00000320: 96d8 71be 972d f33e 58bb 10bf 6543 5cbe
00000330: f3a2 a3bc 1c5e 08c0 9588 8fbf c9d7 1fbd
00000340: 9632 86bf 7197 093f 4044 12c0 c58b 9e3f
00000350: 4052 0b40 18f5 16bf 0d4b 54bf 0dba 493d
00000360: ffad d63f c6a2 b33d fba1 3fc0 f239 b53f
00000370: ddd9 bf3e 5816 ef3e 7c8a 143f 92ae 003d
00000380: b8ba 513f 8fee 60bf 9579 e43d 6f21 383f
00000390: 096e 38bd 6b8f ff3f 362c 79bf 12c7 9bbf
000003a0: 552a 2c3f 91ba 503f d6c7 3abd 4165 83be
000003b0: bfe5 eabc 52ca 0e40 f89a c93e c454 32be
000003c0: 2076 7f3e 3520 0dbe e226 333e 4332 c33f
000003d0: 6eb0 a4be 29d8 b13e 5f5a 8a3f 47e5 903e
000003e0: 0e6d ee3f 54ff 27bf 0cd5 a9bf c835 513d
000003f0: 5519 f63e 7972 8fbd 9245 3f3f 6dc2 acbe

net.2.bias f4 [128]
0.20594376 -0.19523841 -0.042147115 0.16422777 -0.4790324 0.14150837 0.37585744 -0.22296144
-0.057042684 -0.031228622 0.35316145 -0.107704364 -0.5827957 -0.49984777 -0.06391467 0.012341314
-0.53069603 0.27049205 -0.3151184 -0.09937714 0.4259552 0.30529898 0.27230066 0.17362392
-0.25845885 0.035999704 0.04025528 0.58124316 -0.12499245 0.21659644 0.12170103 0.116087064
-0.48194912 0.083688416 0.021676766 0.264219 0.02377995 0.642379 0.015460351 0.49328044
-0.3777843 0.1834494 0.29188183 0.14128421 -0.071971186 0.16438921 0.264809 0.09730336
-0.12058532 -0.016824199 -0.47440118 -0.07776586 0.051909924 -0.23374179 0.23955067 0.3660531
-0.30861682 -0.13354737 0.12228354 0.08267009 -0.059432548 0.08868584 -0.43300557 -0.0009740048
-0.6979753 -0.79374087 0.13579541 0.3309201 -0.088880144 0.11621027 0.34345818 -0.0834335
0.01746911 0.0979679 -1.1559665 0.6243449 -0.017017175 -0.13412082 0.12922584 -0.08437492
0.47033376 -0.027879206 -0.0404061 -0.17036836 0.09091873 0.038648244 0.47159317 -0.6276981
-0.7797078 -0.08643929 -0.02188119 0.16116075 -0.035537653 0.13822705 0.051041882 -0.11665982
-0.25816548 -0.065038726 -0.0687641 -0.06855473 -0.88597167 0.1949943 -0.035341557 -0.027397675
-0.07024228 0.56952596 -0.07411394 0.1008007 -0.022549102 0.19486555 -0.058420096 0.17366514
0.09630446 -0.14221253 -0.0542078 0.18531434 -0.03238125 -0.49237376 -0.06823261 -0.03020876
-0.39026266 0.24146041 -0.101801276 -0.36600655 -0.30610394 0.18457048 0.0006808253 0.019001447
00000000: ece2 523e 94ec 47be 74a2 2cbd 532b 283e
00000010: bc43 f5be 92e7 103e 6370 c03e 0150 64be
00000020: 97a5 69bd 2bd3 ffbc 94d1 b43e 1b94 dcbd
00000030: 1932 15bf 0cec ffbe b2e5 82bd 3933 4a3c
00000040: b2db 07bf ef7d 8a3e 3357 a1be 3e86 cbbd
00000050: cd16 da3e 2650 9c3e fe6a 8b3e 78ca 313e
00000060: b854 84be 6d74 133d b8e2 243d 5acc 143f
00000070: 0bfc ffbd 75cb 5d3e 643e f93d 0ebf ed3d
00000080: 09c2 f6be d564 ab3d 7993 b13c b647 873e
00000090: 2bce c23c f372 243f 694d 7d3c 418f fc3e
000000a0: f26c c1be 29da 3b3e 8971 953e cfac 103e
000000b0: a165 93bd a555 283e 0c95 873e fc46 c73d
000000c0: 70f5 f6bd e7d2 89bc b6e4 f2be b543 9fbd
000000d0: 809f 543d 025a 6fbe c54c 753e 506b bb3e
000000e0: 0603 9ebe a4c0 08be cb6f fa3d f04e a93d
000000f0: 8b6f 73bd eca0 b53d e8b2 ddbe 5b54 7fba
00000100: 82ae 32bf 9a32 4bbf f40d 0b3e 5c6e a93e
00000110: cb06 b6bd a6ff ed3d c0d9 af3e 2fdf aabd
00000120: 611b 8f3c 65a3 c83d b6f6 93bf 11d5 1f3f
00000130: 9a67 8bbc f856 09be c753 043e c2cc acbd
00000140: 96cf f03e ef62 e4bc de80 25bd 0b75 2ebe
00000150: 9933 ba3d 9f4d 1e3d a974 f13e d3b0 20bf
00000160: ee9a 47bf 1507 b1bd 2e40 b3bc 5307 253e
00000170: ee8f 11bd 648b 0d3e 4b11 513d 58eb eebd
00000180: 442e 84be 0633 85bd 31d4 8cbd 6c66 8cbd
00000190: 0acf 62bf 96ac 473e 4fc2 10bd 1771 e0bc
000001a0: 2fdb 8fbd 74cc 113f 0dc9 97bd 9970 ce3d
000001b0: e5b8 b8bc d68a 473e e949 6fbd 46d5 313e
000001c0: 463b c53d 29a0 11be 0009 5ebd 0bc3 3d3e
000001d0: 34a2 04bd 6a18 fcbe 8abd 8bbd 5d78 f7bc
000001e0: 82d0 c7be 6641 773e 307d d0bd 3665 bbbe
000001f0: a8b9 9cbe 0b00 3d3e 6a79 323a eca8 9b3c

net.4.weight f4 [4, 128]
0.95377177 -1.0012395 0.037528712 -0.75678986 -2.9617171 1.3220916 0.5079121 -2.3318574
0.043821603 0.032779254 -1.974721 -0.025122482 -2.1790655 -1.2668006 0.031846978 -0.05490647
-1.733756 1.1130669 -0.6429418 1.0850188 0.32563052 1.2299962 0.88581765 0.90770084
-1.8600429 -0.0041128113 -0.43546805 0.4316493 0.0034743743 -1.76413 2.0350406 -0.8011265
-0.7247887 -0.24886523 -0.016068041 0.6441799 0.028392967 0.4817573 -1.470544 0.38910776
1.3373259 1.3308026 -1.1625279 1.7413123 -0.03435925 0.14833458 -0.91704637 0.48392645
0.06250536 -0.0024344139 -0.5343864 -0.008634051 1.1544814 1.9017792 -0.4758777 -0.659641
-1.9454676 -0.06645586 1.3458395 -0.88627654 -0.01438248 2.0275292 -1.0272115 0.07031711
-2.0172162 -2.2955422 1.1471107 0.12802501 -0.087009326 0.73267466 0.5027446 0.057696313
-0.027630012 1.0414479 -2.4097416 1.0665717 -0.35553253 -0.033401266 0.8775987 -0.956595
1.621688 1.7169986 -0.8257597 -3.5350246 2.1673536 0.004453061 0.348594 -0.62240475
-2.9560885 -1.89896 -0.05675078 -0.70250624 0.00862507 0.8132275 -0.83606136 -0.048226666
1.0689439 0.07170338 -0.80850476 -0.04326149 4.285449 -1.0018657 0.04791607 0.053217795
0.06848952 0.88084793 0.029754834 -0.54991186 0.011833202 -0.66348845 0.02392433 0.77005535
0.4775486 -0.066018686 -0.008750254 -0.38092783 0.019549394 -0.6082691 0.06554509 -0.66789895
2.6100614 -0.7140465 0.0032937883 -2.049856 0.46285543 -0.8888519 0.9463402 0.00031008554
0.98598886 -0.9717621 -0.07812787 -0.7700095 -2.804545 1.4099848 0.64796424 -2.2961507
-0.054431662 -0.0034647975 -0.21236484 0.028782556 -2.004263 -1.9554787 -0.0025289839 -0.075857066
-1.8747152 1.2238611 -0.7579061 0.83506 0.40135714 1.3721309 0.81816584 0.8545356
-1.9017388 0.08860529 -0.3678949 0.4737554 -0.032235395 -1.816741 1.8955346 -0.7259313
0.24164541 -0.4363105 -0.065855764 0.5905035 0.011094138 0.2555043 -1.7114354 0.30059657
1.3600814 1.2119012 -1.2834537 1.777668 -0.010268253 0.13080099 -0.9999178 0.43702787
0.06406066 -0.0017247361 -0.65892214 0.01788335 0.89304334 2.0184398 -0.27392608 -0.7201313
-2.0061345 0.013272164 1.3124617 -0.89595926 0.06104433 2.1745183 -1.0374944 0.06069969
-1.443529 -1.9071165 1.1184464 0.54771096 0.05163776 0.6845732 0.56241685 -0.016804291
0.025438951 0.5873531 -2.5075867 1.0602967 -0.39816386 0.03424879 0.9044993 -0.82403815
1.5136708 1.4143966 -0.7252122 -2.5217404 2.1020422 0.050604265 0.3973488 -0.71345055
-3.9220412 -1.7226341 0.020106884 -0.76061726 -0.058260247 0.8419409 -0.85922617 -0.012235838
1.0534947 -0.064250216 -0.91215956 -0.06399916 2.8639526 -1.0123922 -0.08220394 0.01974504
0.11185689 0.72297597 0.051843766 -0.60884994 -0.038287386 -0.7711426 0.066800684 0.70415825
0.44931972 -0.016892923 0.005372583 -0.6470199 0.023646604 -0.78525305 0.006780251 -0.859895
3.528536 -0.65225184 0.044732746 -2.1195078 1.0629716 -0.8080441 0.854425 0.044797864
00000000: 632a 743f 9e28 80bf b5b7 193d fbbc 41bf
00000010: c68c 3dc0 4c3a a93f 8706 023f 273d 15c0
00000020: 487e 333d 8a43 063d a8c3 fcbf aacd cdbc
00000030: cf75 0bc0 8626 a2bf fa71 023d 9be5 60bd
00000040: b7eb ddbf fa78 8e3f d597 24bf e5e1 8a3f
00000050: 0bb9 a63e 8470 9d3f f2c4 623f 155f 683f
00000060: e315 eebf c3c4 86bb abf5 debe 2301 dd3e
00000070: 54b2 633b 03cf e1bf 1b3e 0240 a016 4dbf
00000080: c18b 39bf 87d6 7ebe 20a1 83bc f9e8 243f
00000090: 5e98 e83c e5a8 f63e c93a bcbf 2239 c73e
000000a0: 7f2d ab3f bd57 aa3f b7cd 94bf 52e3 de3f
000000b0: 49bc 0cbd 05e5 173e 8dc3 6abf 35c5 f73e
000000c0: cf02 803d b08a 1fbb 8ccd 08bf d675 0dbc
000000d0: 0cc6 933f 806d f33f 3ea6 f3be 3cde 28bf
000000e0: 1505 f9bf 031a 88bd 7844 ac3f 05e3 62bf
000000f0: 7ea4 6bbc 0ac3 0140 ab7b 83bf 6b02 903d
00000100: 121a 01c0 2aea 12c0 86d4 923f fd18 033e
00000110: f231 b2bd 9190 3b3f dfb3 003f f852 6c3d
00000120: 5658 e2bc 2a4e 853f 3539 1ac0 6c85 883f
00000130: 5c08 b6be c4cf 08bd 4faa 603f 69e3 74bf
00000140: 7993 cf3f 9cc6 db3f fd64 53bf d83d 62c0
00000150: ecb5 0a40 fcea 913b ea7a b23e eb55 1fbf
00000160: 8e30 3dc0 1f11 f3bf 8273 68bd 73d7 33bf
00000170: 2a50 0d3c ad2f 503f 1e08 56bf 5389 45bd
00000180: 27d3 883f 39d9 923d 2bfa 4ebf f632 31bd
00000190: 6622 8940 233d 80bf a443 443d e7fa 593d
000001a0: 3c44 8c3d 407f 613f 69c0 f33c 06c7 0cbf
000001b0: 0ce0 413c 61da 29bf f5fc c33c 5922 453f
000001c0: 4081 f43e ce34 87bd 3a5d 0fbc f908 c3be
000001d0: 0d26 a03c 86b7 1bbf 813c 863d 6dfb 2abf
000001e0: 3f0b 2740 c0cb 36bf 99dc 573b d730 03c0
000001f0: 63fb ec3e cc8b 63bf 5a43 723f fa92 a239
00000200: c469 7c3f 67c5 78bf 8101 a0bd 581f 45bf
00000210: aa7d 33c0 627a b43f fce0 253f 22f4 12c0
00000220: bcf3 5ebd a811 63bb 2b76 59be 65c9 eb3c
00000230: d845 00c0 204d fabf 4fbd 25bb f35a 9bbd
00000240: abf6 efbf 7ba7 9c3f 2206 42bf 7ec6 553f
00000250: af7e cd3e fca1 af3f 5173 513f d8c2 5a3f
00000260: 2d6c f3bf b176 b53d b85c bcbe 1190 f23e
00000270: 4309 04bd f88a e8bf e1a0 f23f a2d6 39bf
00000280: e571 773e 1764 dfbe 63df 86bd 3d2b 173f
00000290: 30c4 353c 76d1 823e 5110 dbbf cbe7 993e
000002a0: 2617 ae3f 941f 9b3f 3648 a4bf a08a e33f
000002b0: 2d3c 28bc b2f0 053e 9dfa 7fbf 1ec2 df3e
000002c0: 3c32 833d 8a10 e2ba 1faf 28bf 1a80 923c
000002d0: 7d9e 643f 1e2e 0140 0a40 8cbe 865a 38bf
000002e0: 8264 00c0 7e73 593c bffe a73f 965d 65bf
000002f0: 9f09 7a3d 4f2b 0b40 9ecc 84bf 3da0 783d
00000300: 8fc5 b8bf 651c f4bf 4029 8f3f c936 0c3f
00000310: 1e82 533d 3040 2f3f 8dfa 0f3f 27a9 89bc
00000320: 5965 d03c c65c 163f 4d7c 20c0 cdb7 873f
00000330: 22dc cbbe 7648 0c3d 448d 673f 2af4 52bf
00000340: f7bf c13f f30a b53f 82a7 39bf 3264 21c0
00000350: dc87 0640 6b46 4f3d 4d71 cb3e b2a4 36bf
00000360: b902 7bc0 467f dcbf 31b7 a43c d0b7 42bf
00000370: 4ca2 6ebd 7089 573f 3ff6 5bbf d378 48bc
00000380: ead8 863f 9e95 83bd 4a83 69bf fe11 83bd
00000390: 004b 3740 1196 81bf 8a5a a8bd 5ac0 a13c
000003a0: 3a15 e53d f414 393f 215a 543d 97dd 1bbf
000003b0: 3cd3 1cbd 9a69 45bf ccce 883d b743 343f
000003c0: 3c0d e63e 0763 8abc 7e0c b03b 19a3 25bf
000003d0: 86b6 c13c 5806 49bf de2c de3b 1422 5cbf
000003e0: 89d3 6140 faf9 26bf af39 373d 04a6 07c0
000003f0: 740f 883f fadb 4ebf 99bb 5a3f f77d 373d

net.4.bias f4 [4]
0.5187759 0.5390488 0.4565205 0.5450191
00000000: 7fce 043f 1aff 093f 0ebd e93e 5f86 0b3f
